…
'../dataset_pointnet_normalized/pointcloud_3Dmodel/Bag/S__34947319.json', '../dataset_pointnet_normalized/pointcloud_3Dmodel/Knife/S__34947321.json']
data_label: [0, 1, 2]  ...  [13, 14, 15]
init Pointnet_Cla
Model: "pointnet__cla"
_________________________________________________________________
 Layer (type)                Output Shape              Param #   
=================================================================
 input_1 (InputLayer)        [(None, 2000, 3)]         0         
                                                                 
 tnet (tnet)                 (None, 2000, 3)           204873    
                                                                 
 conv1d_3 (Conv1D)           (None, 2000, 32)          128       
                                                                 
 batch_normalization_5 (Batc  (None, 2000, 32)         128       
 hNormalization)                                                 
                                                                 
 activation_5 (Activation)   (None, 2000, 32)          0         
                                                                 
 conv1d_4 (Conv1D)           (None, 2000, 32)          1056      
                                                                 
 batch_normalization_6 (Batc  (None, 2000, 32)         128       
 hNormalization)                                                 
                                                                 
 activation_6 (Activation)   (None, 2000, 32)          0         
                                                                 
 tnet_1 (tnet)               (None, 2000, 32)          336736    
                                                                 
 conv1d_8 (Conv1D)           (None, 2000, 32)          1056      
                                                                 
 batch_normalization_12 (Bat  (None, 2000, 32)         128       
 chNormalization)                                                
                                                                 
 activation_12 (Activation)  (None, 2000, 32)          0         
                                                                 
 conv1d_9 (Conv1D)           (None, 2000, 64)          2112      
                                                                 
 batch_normalization_13 (Bat  (None, 2000, 64)         256       
 chNormalization)                                                
                                                                 
 activation_13 (Activation)  (None, 2000, 64)          0         
                                                                 
 conv1d_10 (Conv1D)          (None, 2000, 512)         33280     
                                                                 
 batch_normalization_14 (Bat  (None, 2000, 512)        2048      
 chNormalization)                                                
                                                                 
 activation_14 (Activation)  (None, 2000, 512)         0         
                                                                 
 glb_feature (GlobalMaxPooli  (None, 512)              0         
 ng1D)                                                           
                                                                 
 dense_6 (Dense)             (None, 256)               131328    
                                                                 
 batch_normalization_15 (Bat  (None, 256)              1024      
 chNormalization)                                                
                                                                 
 activation_15 (Activation)  (None, 256)               0         
                                                                 
 dropout (Dropout)           (None, 256)               0         
                                                                 
 dense_7 (Dense)             (None, 128)               32896     
                                                                 
 batch_normalization_16 (Bat  (None, 128)              512       
 chNormalization)                                                
                                                                 
 activation_16 (Activation)  (None, 128)               0         
                                                                 
 dropout_1 (Dropout)         (None, 128)               0         
                                                                 
 dense_8 (Dense)             (None, 16)                2064      
                                                                 
=================================================================
Total params: 749,753
Trainable params: 743,673
Non-trainable params: 6,080
_________________________________________________________________
Epoch 1/5

    1/31360 [..............................] - ETA: 129:25:06 - loss: 4.9801 - sparse_categorical_accuracy: 0.0625
…
